chatbot_model.pth (torch, 64541 bytes, 6 tensors)

fc1.weight f4 [128, 52]
000000 0a 65 69 3d 2e 6f 5c be b4 67 6e 3d 5a a4 cc 3b
       0.056981124 -0.21526787 0.058204368 0.006245178
000010 13 31 f0 3d ab d8 e1 3b 15 c3 0c 3e 34 90 6b 3b
       0.1172811 0.006892284 0.13746293 0.0035944106
000020 43 6d 59 3e 50 7f 4a bb f5 9c e5 3d 9f 23 87 3d
       0.21233086 -0.0030898638 0.11211578 0.06598591
000030 e8 5d 7d bd 1a 83 0c 3e d4 70 a3 bd 99 29 86 bd
       -0.061857134 0.13721886 -0.07980505 -0.06550903
000040 84 b6 64 3e be 8e 4e bd c1 bc 3d 3e f8 3b 55 be
       0.22335249 -0.0504291 0.18529035 -0.20823658
000050 59 ba 5c 3e 1b b6 80 3e 94 6d b6 3d 4a 29 29 3e
       0.21555461 0.25138935 0.08907619 0.16519657
000060 b4 73 97 bd 45 49 cb 3b 53 50 98 bd 01 c4 52 3e
       -0.073951155 0.006203803 -0.07437196 0.20582582
000070 5b 40 ec 3b 1b 5e 5b bd 17 e5 b9 bd 60 3f 76 bd
       0.00720982 -0.053556543 -0.090768985 -0.060119033
000080 71 c5 82 bd b9 58 da 3d 00 47 8c 3d cc 39 35 3e
       -0.06385315 0.10661454 0.0684948 0.17697829
000090 76 1e 03 3e 8c df c7 bd 60 3d 88 3c b2 e9 fa bd
       0.12804589 -0.09759435 0.016630828 -0.12251605
0000a0 8c ac 5e bd a0 63 56 bd 61 48 96 3d af fb f8 3c
       -0.054363772 -0.052341104 0.07338024 0.03039345
0000b0 b6 23 3c 3c e1 2f 18 3e 7f 81 2c be 98 53 e2 3c
       0.0114831235 0.14862014 -0.16846274 0.027627751
0000c0 21 3d 3d bd 7f f0 8d bd 80 14 f0 bb c9 bd e4 3d
       -0.046200875 -0.069306366 -0.0073266625 0.11169011
0000d0 82 18 1d 3e 3a e6 24 be e8 0b fc 3d 38 2a 0b be
       0.1534138 -0.1610345 0.123069584 -0.13590324
0000e0 a9 74 34 be 4b 67 3c 3d f6 2e 82 bd 1e eb 86 bc
       -0.17622627 0.045996945 -0.06356613 -0.016469534
0000f0 17 55 12 be 10 c2 72 bd c4 40 9f bd 29 dc 5a 3d
       -0.14290272 -0.059267104 -0.07776025 0.053432617
000100 ae af 3d bc 60 e5 f0 3c 79 e5 82 bd cf e1 a4 3d
       -0.01157753 0.02940625 -0.06391425 0.08050882
000110 0b fa dc 3d 65 25 83 3c 57 a2 6b 3d ae 79 81 3b
       0.107898794 0.016009042 0.057527866 0.003951273
000120 45 51 cb bd b0 5f fc 3d 72 da 4d bd 4e 0a ce bd
       -0.0992761 0.123229384 -0.050257154 -0.10060559
000130 9b 14 a3 bb 93 c3 36 3e 6d 7f 06 bd f6 b8 a8 bd
       -0.0049768216 0.17848043 -0.032836366 -0.082384035
000140 26 85 b1 bd 3d 08 60 3e 53 74 2a 3e b6 d3 c9 3d
       -0.08667974 0.21878143 0.16645937 0.09854834
000150 74 32 4b 3e 74 ec fa 3d 22 e3 27 3e 1d 9e fe 3d
       0.19843465 0.12252131 0.16395238 0.124325015
000160 c6 ef 0f be 38 12 03 3d eb 17 e9 3c a1 d3 13 3e
       -0.1405631 0.031999797 0.028453788 0.14436199
000170 e0 8a 08 3d e1 a4 60 3e 5c fa 72 bd a4 33 e2 bd
       0.033335567 0.21937896 -0.059320793 -0.11045006
000180 a8 31 8f 3d a0 d0 85 3b a5 78 88 3e c4 16 d8 bd
       0.06991893 0.004083708 0.26654544 -0.10551217
000190 48 91 a3 bc 7a e0 ee 3d 8c d9 36 bd 04 1b 5a bc
       -0.019966736 0.11663909 -0.044641063 -0.013312105
0001a0 ba d0 c4 bd e0 43 fb bb e8 a9 00 be 28 43 0a be
       -0.09610124 -0.0076680034 -0.12564814 -0.1350218
0001b0 65 8e e2 bd c8 e3 f7 3d fa b0 06 3d 38 f4 ce bc
       -0.11062316 0.12103993 0.03288362 -0.025262937
0001c0 2a b4 f9 bd f4 9b 0e 3d 3d 2b 12 be d3 87 cf bd
       -0.12192567 0.034816697 -0.14274307 -0.10133328
0001d0 14 43 dc 3d 94 dc b0 bd 04 83 bd bd 5a 91 9e bd
       0.10754982 -0.08635822 -0.09253505 -0.07742567
0001e0 92 46 d0 bd a2 48 a1 bd c4 0e cd bd 26 af e8 bd
       -0.1016971 -0.07875182 -0.10012582 -0.11361532
0001f0 a8 6a 03 3d 48 20 7e bc 80 b1 12 bc 1a 1d 5d bd
       0.032084137 -0.015510626 -0.008953452 -0.05398283
000200 e0 47 e1 bd 80 d3 9b bd cc 53 06 be dc 3d 89 3d
       -0.11000037 -0.076087 -0.13117903 0.06701252
000210 e4 cd f2 bd 40 b3 00 bd 60 c4 33 bd 54 8c 01 3d
       -0.11855677 -0.031420946 -0.04388845 0.031627968
000220 aa 6d 60 bd d2 3b bf bd 1c 2f ca 3d f6 25 d4 bd
       -0.054792084 -0.09337582 0.09872267 -0.10358803
000230 f8 56 20 bd f2 e3 73 bd 34 9d 94 bd 4e 5b fb 3d
       -0.03914544 -0.059543557 -0.072565466 0.12273274
000240 18 14 04 bd 5c b6 81 3d 5c 35 d1 3d e6 14 92 3d
       -0.032245725 0.063336104 0.102152556 0.07132892
000250 04 10 9f 3d 7a d0 af 3d f8 66 a2 3d 08 db 5f 3d
       0.077667266 0.085846856 0.07929796 0.054652244
000260 d4 21 89 3d 38 96 1d bd 0d 4a 05 3e 8a 5e 5f 3d
       0.06695905 -0.038473338 0.1301653 0.05453352
000270 7e aa 38 3d 35 1f 0b 3e 7f 51 bd 3d cc 79 0d 3e
       0.04508447 0.13586123 0.0924406 0.13815993
000280 48 25 df bd f3 46 02 be 20 8d 58 3d 17 5c 27 3e
       -0.10895783 -0.12722377 0.052868962 0.16343723
000290 5b bf 84 bc 51 cf 72 bd 71 4f 82 bd 6d 14 33 3e
       -0.016204527 -0.059279744 -0.063628085 0.1748826
0002a0 5a 6e b0 3d 96 73 8a 3d f9 60 21 3e 5c f6 1a 3e
       0.08614798 0.067603275 0.15759648 0.15133041
0002b0 45 1f 4d 3b 5c bd 2a 3e c7 2c aa bd 57 a2 59 3e
       0.0031299156 0.16673797 -0.08309322 0.21253334
0002c0 88 cb f7 bd 2e 79 d4 bc 79 dd b5 bd 78 a5 c4 bc
       -0.120993674 -0.02593669 -0.08880133 -0.024004683
0002d0 d4 e4 13 3e 3d 42 67 bc 15 40 89 3d 42 fd 2d be
       0.1444276 -0.0141149135 0.06701676 -0.16991141
0002e0 6b d9 16 3c 6e 2b e0 3d 96 f9 93 3c 64 59 24 3e
       0.00920711 0.109457836 0.018063348 0.16049725
0002f0 34 6e 31 bb 82 45 a0 3d d6 0e 8b 3d 61 0b 60 bd
       -0.0027073743 0.078257576 0.06789939 -0.05469835
000300 20 50 24 be 65 0f 62 3e 4f 04 8a 3b 10 b9 3c bb
       -0.1604619 0.22076185 0.0042119394 -0.002879683
000310 16 29 39 3e eb fc 38 3e cc cd 47 bc b2 9d 10 bc
       0.1808208 0.1806523 -0.012195062 -0.00882666
000320 a6 46 1d be 31 4f 8a bd 8b 4b 8d 3e ae dd 8c 3d
       -0.15358981 -0.06753386 0.27596697 0.068782195
000330 c4 05 d5 bc 86 72 4a 3e 5f e1 6b 3d c3 f2 96 3d
       -0.026003726 0.1977025 0.057587977 0.07370522
000340 7a 6e 4b 3e f6 ca e4 bc e7 a9 0d 3e cc e2 04 be
       0.19866362 -0.02792881 0.13834344 -0.12977141
000350 6d 07 e4 bd cc 77 9f bc 4c bd 2e 3d bc 7f 0e bd
       -0.11134229 -0.019466303 0.042660996 -0.034789786
000360 e1 e4 6d bd 0e 49 ac bd cc 33 61 bd 9f d0 0c be
       -0.058079604 -0.084123716 -0.054981038 -0.13751458
000370 f7 a0 d4 bd ba be 94 3d 9f 7b c2 3d 28 0d 4b 3d
       -0.10382264 0.07262941 0.09496235 0.049573094
000380 90 ba 2f 3b 50 bb 3f 3d ec b0 1c bd 5a fe 91 3c
       0.002681408 0.046809494 -0.038254663 0.01782148
000390 80 f5 eb 3c 00 5d 2c 3a cf 58 05 be c4 f1 b0 3d
       0.028803587 0.00065751374 -0.13022159 0.08639863
0003a0 b4 75 a8 3d 9c 91 e6 bd 71 3f 04 3e c8 68 bc bc
       0.08225575 -0.112582415 0.12914826 -0.022999182
0003b0 00 b7 b0 3c 45 36 80 bd 29 91 04 3e e9 2a 5a 3e
       0.021571636 -0.06260351 0.12945999 0.21305431
0003c0 d8 a8 36 3e 2c 1b d6 3d 92 27 bb bd c2 d0 e1 3d
       0.17837846 0.104544014 -0.09138407 0.110261455
0003d0 06 27 cb 3d 73 76 9a bd b3 b8 68 3c 78 c7 26 3d
       0.099195525 -0.07542124 0.014204192 0.040717572
0003e0 36 e9 49 bc 14 f4 aa bc dc ee 37 3d ee 71 9d bd
       -0.012323668 -0.020868339 0.04490553 -0.07687746
0003f0 98 a9 6f bc 3c ae 77 3d 54 45 16 3e d2 9b f8 bd
       -0.014627837 0.060468897 0.14674884 -0.12139095

fc1.bias f4 [128]
000000 3a 79 57 3d 1c 4c 40 3c 18 42 0d be 01 5b b4 3d
       0.052605845 0.011736896 -0.13794744 0.0880642
000010 c0 e4 95 bd 06 2f ec 3c 81 96 1f 3e 38 a5 86 3e
       -0.07319021 0.028831016 0.15584756 0.26297927
000020 c7 02 95 3d 68 f4 67 3d f1 1f 24 bd a9 d3 d1 3d
       0.0727592 0.05662957 -0.040069524 0.10245449
000030 10 0d 79 3e 82 f2 86 3e 71 17 e8 3d af 2c 39 3e
       0.24321389 0.26356894 0.11332596 0.18083452
000040 bc 6d 09 3e 7e c0 f6 bb 1d 30 a7 3d 98 0c 01 bc
       0.13420767 -0.007530271 0.08163474 -0.007876538
000050 69 9c 72 3e e8 e5 75 3d 64 bf 94 3d ac f0 8a 3d
       0.23692478 0.06003371 0.07263067 0.06784186
000060 3f bf 81 3e 35 b0 70 3e 53 3c 02 3e 9c bf 34 3c
       0.25341222 0.23504718 0.12718324 0.011032011
000070 2c 32 8e 3d ba 75 44 3e 78 39 61 3c 52 a2 0c 3d
       0.06943163 0.19185534 0.013746612 0.03433449
000080 13 f2 ea 3d 22 11 75 3e 87 73 30 3c f8 bc 85 3c
       0.11471953 0.23932317 0.010769731 0.016325459
000090 b0 39 20 3e 65 ea 11 3e 54 04 ed 3d 20 0c 99 3d
       0.15647006 0.1424957 0.11573091 0.07473016
0000a0 95 f4 a6 3d 85 11 df 3d ee 4e a8 bb d6 e8 83 3d
       0.08152119 0.108920135 -0.0051363623 0.06440894
0000b0 e0 c8 9d 3d da 64 41 3e 24 9b b9 3c 7e e6 6a 3d
       0.077043295 0.18886128 0.022656985 0.05734872
0000c0 0a cb 1b 3e 32 97 34 3c d8 5e 50 3e b4 75 04 bd
       0.15214172 0.011022376 0.2034868 -0.032338813
0000d0 75 71 43 3d 76 72 33 3e 14 42 29 3e 72 d3 b9 bc
       0.047715623 0.17524132 0.16529113 -0.022683833
0000e0 31 55 ce 3d 92 b5 83 3e b4 3b 17 3e a3 83 f2 3d
       0.10074843 0.25724465 0.14768869 0.11841514
0000f0 be d2 be bd 1e b0 44 bd 61 6f 54 3e 7d 1c 08 3e
       -0.0931754 -0.04801952 0.20745613 0.13292117
000100 43 81 2c 3e 29 84 8b bd 73 fe 00 3e d0 b7 37 3e
       0.16846184 -0.06812317 0.12597065 0.17941213
000110 66 38 91 3d a0 94 21 3e 8d 98 4d 3d 5d 09 98 bc
       0.07090835 0.15779352 0.050194312 -0.018559152
000120 7b f1 59 3e 15 05 7a 3e fe c5 13 3e d6 2c 92 3d
       0.21283524 0.24416001 0.14430997 0.07137458
000130 00 d3 a5 3d c5 3a 25 3e 42 8b 41 3e cb 9d 6c 3e
       0.08096886 0.161357 0.18900779 0.23107068
000140 d7 4b 74 3e 21 2d d9 3c fa 8e c4 3d 1b e9 b1 3d
       0.23857056 0.026510777 0.09597583 0.086870395
000150 84 b0 2d 3c f2 10 46 3e 2e 1e 12 3e 5f 25 47 3e
       0.010601167 0.19342402 0.14269325 0.1944785
000160 d9 3d 35 3d 7c 90 d4 3d 4e 67 26 3e 66 62 f6 3d
       0.044248436 0.10379121 0.16250345 0.12030487
000170 9c 1d 04 3d 73 0b 31 3e f1 74 26 3e e9 bd 26 3d
       0.0322548 0.17289524 0.16255547 0.040708456
000180 8a 9d 64 3d 0c 4b dc 3d 60 36 62 3e f7 5e f4 bd
       0.055814303 0.107565016 0.22091055 -0.119321756
000190 e2 c7 ba 3a 5c 43 1d bd 49 fd 67 3e 38 91 45 bc
       0.0014250244 -0.038394317 0.22655214 -0.012058549
0001a0 09 ad 83 3c 05 56 f4 ba 15 41 c3 3d 7d 90 0b 3e
       0.01607372 -0.0018641358 0.09533898 0.13629337
0001b0 e5 ac 46 3d 31 b6 b3 3d 61 33 35 3e 3c 97 02 bd
       0.04850473 0.08774985 0.17695381 -0.03188251
0001c0 b0 c2 06 3e 62 01 2f 3e 1a 53 32 bd d3 c0 e9 3d
       0.13160205 0.17090371 -0.043536283 0.114137314
0001d0 eb 97 e9 bb d8 e9 f6 3d 4d ff be bc 92 36 46 bc
       -0.0071287057 0.12056321 -0.023315096 -0.0120979715
0001e0 2c 3e f3 3c 82 28 c7 3d bb b4 56 3d 41 cb bd 3d
       0.029692732 0.09724523 0.05241845 0.09267283
0001f0 90 d9 a4 3d 60 b2 34 3e d7 09 64 3d a8 71 ed 3d
       0.08049309 0.1764617 0.055673447 0.11593944

fc2.weight f4 [64, 128]
000000 2a e2 1a bd 73 17 8b 3d 8b ff 8f bd 92 14 8a bc
       -0.037813343 0.06791582 -0.07031163 -0.016855512
000010 77 d1 33 3d 81 14 ea bc a2 19 57 bd 94 4e ce 3d
       0.043900933 -0.02857423 -0.05251468 0.10073581
000020 76 c6 d8 bd bb 97 c1 bd 9d 14 f1 bd 82 f5 cc bd
       -0.105847284 -0.094527684 -0.1177151 -0.100077644
000030 b8 19 f4 bc e2 a5 f6 bd aa bf 96 bb c3 d2 17 3d
       -0.02979742 -0.120433584 -0.004600485 0.037066232
000040 2b 11 31 be c8 2b d7 39 28 75 4c 3c 75 dc c0 3d
       -0.17291705 0.00041040615 0.012479104 0.09417049
000050 0a c8 56 3d c8 7b b3 3c 29 fd 11 3d 5e 99 87 3d
       0.052436866 0.02190961 0.035641823 0.06621049
000060 7c e5 47 bd c7 55 da bb fd a2 1b 3e c5 5f 50 bd
       -0.048802838 -0.0066630575 0.15198894 -0.050872583
000070 5b e0 2c 3e bc 32 be bd ba b5 3e 3d 58 55 9d 3d
       0.1688246 -0.092870206 0.046560027 0.07682294
000080 0f 56 f2 bd 16 93 94 3c 2f 21 28 3b 6b 26 64 3d
       -0.118328206 0.018136542 0.0025654545 0.0557007
000090 43 70 ba bc ce 41 c3 3d 2d 0d e9 3c 7c 1e e7 bd
       -0.022758609 0.095340356 0.028448666 -0.11285111
0000a0 55 e0 a4 bd 2d eb 92 bd ee b1 c9 3d 85 b8 16 be
       -0.080506004 -0.071737625 0.098483905 -0.14718826
0000b0 88 cc 4a bd c3 91 dc bc 18 e0 50 3e a0 23 f6 3d
       -0.049511462 -0.026924973 0.20397985 0.12018514
0000c0 04 86 44 bd 78 6b 65 3d b4 9c 18 bd 82 05 bc 3d
       -0.04797937 0.056010693 -0.03725882 0.09180738
0000d0 ce 0e 94 3c d5 17 49 3d 33 5b b3 3b 7c 6e 1f 3c
       0.018073466 0.049094994 0.0054735183 0.009730931
0000e0 44 ae f4 bc d6 55 ec bb 43 16 b5 bc ee 10 5c bc
       -0.029868253 -0.007212381 -0.022105342 -0.013431771
0000f0 5b 0a 34 bd 36 c4 7a 3c 76 15 4f 3d 77 a7 8c bd
       -0.04395519 0.015305569 0.050557576 -0.06867879
000100 a0 dc 15 3e 33 6c 46 bc 36 4f 02 3e b0 d7 fd bc
       0.14634943 -0.012110758 0.12725529 -0.030986637
000110 14 0c c5 3d 28 16 9d bd e5 86 81 bc ec 6c 8b 3d
       0.09621444 -0.076702416 -0.015811393 0.068078846
000120 12 b1 9c 3d f8 53 a2 3d cb 5a e4 bc 9c 57 2a 3d
       0.07650961 0.07926172 -0.027875325 0.041587457
000130 ac 80 9c 3d 61 46 dc 3d 6d 4d 44 bc 1e 7b 20 3d
       0.0764173 0.10755611 -0.01198135 0.039179914
000140 9f d1 90 bc ca 40 28 3d 0f 2d a8 bc fb 0c 8e bc
       -0.01767808 0.041077413 -0.020529298 -0.017340174
000150 13 02 ae bc ee 57 f2 3c a0 cf 43 3c 38 bd 41 3d
       -0.021241223 0.029582944 0.011951357 0.047299594
000160 49 d1 bf 3d 79 39 82 3d fe 2b 89 bc 1c 23 e3 bc
       0.0936609 0.06358618 -0.01674461 -0.027726702
000170 cc f4 f6 b9 f7 22 d5 bc 97 8c 7a bd 7c 1c 15 3e
       -0.00047103164 -0.02601765 -0.061169233 0.14561647
000180 20 ea 14 3d 85 94 09 3e 13 00 dc bc df 9b 91 bc
       0.03635609 0.13435562 -0.026855504 -0.01777452
000190 cf ff e8 3c 6a 88 87 bd 2d 84 8a 3d cb 82 68 3d
       0.028442292 -0.06617816 0.06763492 0.05676536
0001a0 09 be 5d 3d d3 53 cf bd d7 02 8d 3d 0c 4a ca 3c
       0.05413631 -0.1012341 0.06885307 0.024693511
0001b0 6f 2d ea 3d 11 61 79 3d b6 bb 49 3d d9 fb 8d bd
       0.11434447 0.060883585 0.04925128 -0.06932802
0001c0 d4 e0 5f bd d8 3a a7 3c 4b 65 3b bd 76 09 aa bd
       -0.054657772 0.020413801 -0.045750897 -0.08302586
0001d0 75 40 d1 bd 3c 15 d1 3b ce a1 9c 3d 0e 26 76 3d
       -0.10217372 0.006380705 0.07648049 0.060094886
0001e0 e8 8a e9 3d e0 c6 4d 3d 88 15 bd bd b7 2f c0 bc
       0.114034474 0.05023849 -0.092326224 -0.023460252
0001f0 ee 13 cd bb fd a7 a3 3b 91 ab bc 3b 4c c6 43 3c
       -0.0062584793 0.004994391 0.005757757 0.011949133
000200 c5 40 ed bd 4c ec 6f bd 22 85 2a 3d 54 3d 24 3d
       -0.115846194 -0.05857496 0.04163087 0.04009755
000210 9d 92 b9 3d 81 bd 25 be 51 1a 77 3d 3b 61 0f 3e
       0.090611674 -0.16185571 0.06032783 0.14001934
000220 83 66 e9 bb c2 79 11 3d 84 98 c9 bc 67 a5 a5 bd
       -0.007122816 0.035516508 -0.024608858 -0.080881886
000230 3a 8a ea 3d e3 5f e4 3d 0f 78 42 3c 69 f6 aa bd
       0.11452146 0.111511014 0.0118694445 -0.0834778
000240 6a bc 91 3d 8e 87 c7 3c 0c 4b c8 bd 2e c7 9a bd
       0.07116015 0.02435663 -0.09779939 -0.07557522
000250 07 10 4c 3e da 45 45 be 48 38 01 bc 63 b7 f8 bc
       0.19927989 -0.19264928 -0.007886954 -0.030360883
000260 96 df db 3d b0 7f 98 3d 7f c3 14 3e 69 b6 20 3e
       0.10736005 0.074462295 0.14527701 0.15694584
000270 6d df 39 bd 53 c7 50 3d 1c bf 2f bb fa aa 74 3d
       -0.04537909 0.05097134 -0.002681679 0.05973337
000280 2c cb c3 3d c6 42 97 3d ea 60 d9 bd 9c cc 92 bd
       0.09560236 0.07385783 -0.10614188 -0.071679324
000290 75 6b d5 bd c9 45 c4 bb f9 e5 65 3d 5f eb 3f bc
       -0.104208864 -0.0059897644 0.056127522 -0.011713832
0002a0 f8 00 37 ba f1 53 ba 3c ab 11 0f 3d b7 c5 31 be
       -0.00069810404 0.022745105 0.03492896 -0.17360578
0002b0 f5 b7 22 3e a5 3b 55 3d 07 44 2b 3e 4d 58 c6 3c
       0.15890487 0.052058835 0.16725169 0.024212027
0002c0 c0 82 ee bc 75 57 98 bd e4 9e 76 3c e6 c6 47 bd
       -0.02911508 -0.07438556 0.015052531 -0.04877367
0002d0 bc 78 8e bd fc 09 d4 3d 7c 05 6e 3d b0 b4 5e 3d
       -0.06956622 0.10353467 0.0581107 0.054371536
0002e0 34 26 5f bb 4e cd 63 3e 7d 21 ae 3d e4 82 84 bc
       -0.003404987 0.22246286 0.08502481 -0.016175695
0002f0 f7 8b 62 bd bc 46 2c 3e 20 83 3b 3e df af 2e 3d
       -0.055309262 0.16823858 0.18311739 0.042648192
000300 d4 a7 40 3d 2c 85 03 be 81 0b a8 3d cf 0b b8 3c
       0.047035053 -0.1284377 0.08205319 0.022466568
000310 f9 6d 14 3e 39 0d 27 bd 9f 64 0b 3d 28 03 ac 3d
       0.14495076 -0.040784094 0.034031507 0.083990395
000320 bb d2 ec 3d 35 58 c0 3d c7 8e ba bd bd e4 ee bd
       0.11563631 0.09391824 -0.09109264 -0.11664722
000330 d7 5b e7 3d c9 65 a9 bd af 06 56 3e bc b9 d0 3d
       0.11296814 -0.08271367 0.20900987 0.10191676
000340 ff db 38 3d 36 24 4c bd d1 ec af 3d b7 69 39 be
       0.04513168 -0.04983922 0.08590091 -0.18106733
000350 af 67 af 3d b1 3f a5 3b 5c ed 23 3b 8c 9c 40 3e
       0.08564698 0.005042993 0.0025013303 0.18809718
000360 b4 28 08 3d 79 92 89 3d 21 9b 3f 3d 2f 8b 34 3c
       0.033241943 0.067173906 0.0467788 0.011019512
000370 77 e7 a8 3d 70 95 28 3d 75 fb c1 3d 22 01 4e bd
       0.082472734 0.04115814 0.0947179 -0.05029405
000380 24 4e 25 3e ca be 52 3d 58 ba 1a 3e 27 45 86 3d
       0.1614309 0.051451482 0.15110147 0.065561585
000390 08 47 e2 bd 81 7c 0b 3d af 93 8a 3d 5f cb 56 bd
       -0.110487044 0.034054283 0.0676645 -0.052440044
0003a0 b2 f4 cd bd a0 b7 31 bc ae dd 1d bd 25 7e 35 3e
       -0.100564376 -0.010847002 -0.03854149 0.17723902
0003b0 ba ba 14 3d 36 50 39 bd 93 e7 73 3e 9b e3 d1 3c
       0.03631089 -0.04524251 0.23818807 0.025621226
0003c0 3c c4 f8 3d 10 92 59 3d 86 84 f1 bd 57 a4 e3 3d
       0.12146804 0.05311781 -0.11792855 0.1111533
0003d0 1a 92 c6 3c 58 1f 75 bd 79 ad f6 3c 03 6e f2 bc
       0.024239589 -0.059844345 0.030112015 -0.029593473
0003e0 01 d4 ef 3c bb 3f f5 3c 72 aa bf bd 2f ba 26 bc
       0.029275896 0.029937616 -0.09358682 -0.010176226
0003f0 b7 46 4d be 67 2c f4 bb be 0c e1 3d 46 e0 15 bd
       -0.20046507 -0.0074515822 0.109887585 -0.036590837

fc2.bias f4 [64]
000000 54 73 88 bd d3 07 00 3e 60 e1 16 3d ed 9a ec 3d
       -0.06662622 0.12502985 0.036836028 0.11552987
000010 75 e6 98 3d 9d 7e f1 3d 7c fa ff 3c 7f 9f 00 3d
       0.07465831 0.11791728 0.03124737 0.031402107
000020 cf 78 84 3c dd b0 d0 ba 0b 1d 80 3c 04 1d 58 3c
       0.016170887 -0.001592185 0.015638849 0.013190512
000030 93 a2 fd 3d 11 3d 42 3c b4 16 1e 3d 1f fa 14 3e
       0.12384524 0.01185538 0.03859587 0.14548539
000040 58 53 72 bd 17 5b e3 3d b7 86 d2 3d cd ee 81 3d
       -0.059161514 0.111013584 0.10279601 0.06344376
000050 45 65 0e 3e 0f 2a 02 3e fd 4a 15 bd bf 6f b5 3d
       0.13905819 0.12711357 -0.036448468 0.088592045
000060 cc f7 f6 3c cf fb 32 bd 17 46 cb 3d 4f 8a 1e bd
       0.030147456 -0.043697175 0.09925478 -0.03870612
000070 aa 7d 3c bc da 19 74 bd 7d 6b 22 bd a2 2e 09 3c
       -0.01150457 -0.059594966 -0.03965329 0.008372935
000080 5b 80 00 3d 66 d8 01 3e 11 a5 86 3d 03 99 9b 3c
       0.03137241 0.12680206 0.06574453 0.01899386
000090 5c 77 31 3e 66 24 14 3e 38 e8 d1 ba b8 6f c4 3d
       0.17330688 0.1446701 -0.0016014641 0.09591621
0000a0 38 58 d2 3d 79 56 2b 3e 67 0a e5 3d 9c 36 64 bb
       0.10270733 0.16732205 0.11183625 -0.0034822589
0000b0 fa 69 07 3d 15 5d a5 bc e7 eb 9a 3d 8a c8 b3 3c
       0.03306005 -0.020185987 0.07564526 0.02194621
0000c0 0e 5f 12 3e 53 e0 b3 3d 0e 97 08 3e 4f f6 53 3d
       0.14294073 0.08783021 0.13338873 0.05174857
0000d0 4d c0 ff 3d 96 5c b9 3c d3 cd 49 bd e8 ad a5 3d
       0.1248785 0.022627156 -0.049268555 0.080898106
0000e0 8f ff fa bc 20 ab 10 3e a4 9d 55 3d c2 67 fe 3d
       -0.030639438 0.14127779 0.05215229 0.12422134
0000f0 dd b5 ed 3d 3d 4d fc bc da b1 c5 3b 49 dd 36 bd
       0.11606953 -0.030798549 0.0060331644 -0.044644628

fc3.weight f4 [5, 64]
000000 81 a0 35 be ed 0d 47 bd d6 43 5c bd 68 f3 fc 3d
       -0.17737009 -0.048597265 -0.05377563 0.123511136
000010 78 30 37 3c 2b 7e 28 3e b8 dc 3c be 05 aa 39 3e
       0.011180989 0.1645438 -0.18443573 0.18131264
000020 d0 5d 95 be 5b 42 38 be e2 38 0d 3e 87 9f 32 3e
       -0.29173136 -0.17994063 0.1379123 0.17443667
000030 ff 80 f9 3d 60 89 93 3d 42 0e 21 be df 65 10 3e
       0.12182807 0.072039366 -0.15728095 0.1410136
000040 9d bc 44 be 55 80 3f be a2 ac c8 3d 71 f4 b3 3d
       -0.19212575 -0.18701299 0.09798552 0.08786858
000050 8c 5b ed 3d 64 39 2e be 94 d2 27 be 32 ec 92 bd
       0.11589727 -0.1701408 -0.16388923 -0.07173957
000060 db 51 f6 3d b5 44 27 be b1 54 d5 3d 61 20 8a be
       0.120273314 -0.16334803 0.10416544 -0.26977828
000070 78 55 3b bd 39 3a 52 3d f6 96 d2 bd b2 b6 57 be
       -0.045735806 0.051325057 -0.102827 -0.21065786
000080 74 09 d5 bd 06 18 9c 3d 29 0a df bd 25 b4 5a be
       -0.10402194 0.076217696 -0.1089061 -0.21357782
000090 3f c8 5c 3e b9 5a 88 3d 2f 70 81 be 5b 7e 1d bd
       0.21560763 0.06657929 -0.25280902 -0.03845058
0000a0 ef 95 8e 3c be c8 09 3e 9f 5f b6 3d d4 42 83 3e
       0.017405478 0.13455483 0.08904957 0.25636923
0000b0 15 1c 90 3d 76 db 1d 3e 6b bd ca bd 3a c4 b7 3d
       0.07036606 0.15415749 -0.0989941 0.08972974
0000c0 d8 cb 3c be 6a 84 6e be 30 47 6c be 78 4e 66 3e
       -0.18437135 -0.232927 -0.23074031 0.22490871
0000d0 35 08 b4 3d 8b 1a 86 3d 7d 4d 63 be d8 42 27 be
       0.08790628 0.065480314 -0.22197528 -0.16334093
0000e0 b2 8d 3d ba 4b f0 c0 3d 69 cf 31 be b4 2b 35 3d
       -0.0007230892 0.09420832 -0.17364277 0.04423113
0000f0 32 61 06 3e c9 b8 39 3e 78 50 6e be 61 76 d6 3d
       0.13123015 0.18136896 -0.23272884 0.10471798
000100 98 a0 5d be 9f ce fe 3d 74 0c 0a 3e 69 7a 96 3c
       -0.21643293 0.124417536 0.13481313 0.018368917
000110 54 2d aa bd 37 90 12 3e 13 3b 65 3e 60 69 25 3e
       -0.08309427 0.14312826 0.22385816 0.16153479
000120 cc 16 ca ba ac 8e 51 3e de 1f b4 bd c1 90 1c be
       -0.0015418171 0.20464581 -0.08795141 -0.15289594
000130 ca 0e 03 be 95 38 b5 3d a5 99 ec bd 3f fa 46 3e
       -0.1279861 0.08848683 -0.11552743 0.19431399
000140 93 13 81 be ba 58 65 be e5 c2 0b be 58 59 80 be
       -0.25210246 -0.22397128 -0.13648565 -0.25068164
000150 d6 82 44 3e 68 04 2e 3e 19 bd fb 3d fe 59 3f be
       0.19190535 0.16993868 0.12291927 -0.18686673
000160 fa 78 e8 bd 27 59 8a be 99 c6 16 3d ea fc a7 bd
       -0.113511994 -0.27021143 0.03681049 -0.082025364
000170 af b9 0a be 68 42 49 be d5 1a 76 be ca 6f 0c 3e
       -0.13547395 -0.19654238 -0.24033673 0.13714519
000180 45 c2 7e be 06 3d 24 be 9c e9 0b be 7a 76 f1 bb
       -0.24878795 -0.16038904 -0.13663334 -0.00736886
000190 cd 80 12 3e be be f7 3c 60 fe 64 be 0d 8b 53 be
       0.14306946 0.03024232 -0.22362661 -0.20658512
0001a0 6b 22 62 be 25 27 01 3e 4b c6 b4 bd 14 fd 10 be
       -0.22083442 0.12612589 -0.08826884 -0.14159042
0001b0 d6 76 06 be 1b c0 a8 be c2 bf 79 3e 3e 18 06 3e
       -0.1313127 -0.32959065 0.24389556 0.13095185
0001c0 6e 61 67 3e ed 48 19 3e b6 d6 47 3e e4 cb c5 bd
       0.2259576 0.14969225 0.195155 -0.0965803
0001d0 78 81 77 3e 77 7e 69 3d 77 e2 30 be 96 4e 4e be
       0.24170482 0.057005372 -0.1727389 -0.20147166
0001e0 3a 39 42 be 90 a0 49 3e be f6 d7 3d e8 23 66 be
       -0.18967143 0.19690156 0.10545109 -0.22474635
0001f0 08 cc 16 3e 96 49 82 be 50 28 82 be 68 f1 aa be
       0.14726269 -0.25446767 -0.2542138 -0.33387303
000200 7d 07 65 be 1b 30 81 be 8e d7 6a be fb ba 30 bd
       -0.22366138 -0.25232014 -0.2293379 -0.04314707
000210 0c 4b 4a 3e a9 98 c6 3d 3b 06 28 be 6c c3 b9 3d
       0.1975519 0.09697086 -0.16408627 0.09070477
000220 97 0f 19 be 3e 3a f7 bd dd 72 8f be b3 46 38 be
       -0.14947353 -0.12071656 -0.2801732 -0.1799572
000230 23 07 43 3d e2 6f b0 be d6 da 7d 3e 80 a5 ac 3c
       0.047614228 -0.3446036 0.2479051 0.02107501
000240 6b 86 27 3e a9 cb 17 3e 9c a2 77 be cd e8 54 be
       0.1635987 0.14823784 -0.24183124 -0.20791931
000250 63 2a 8f be e8 24 61 be 14 33 be bd 82 84 4a be
       -0.27962026 -0.21986735 -0.09287086 -0.1977711
000260 22 c6 0f 3e d8 ba e3 3d 76 54 0e 3e cf bf 79 3d
       0.14040425 0.11119622 0.13899407 0.06097394
000270 70 36 92 be ac a6 4b be f3 e3 1e be e8 eb f9 3d
       -0.28557158 -0.19887799 -0.15516643 0.12203199
000280 98 39 a9 3c 85 ab 1a 3e 3b 1d 02 be 83 b6 0e 3e
       0.020657346 0.15104492 -0.12706463 0.1393681
000290 0d 98 1e be 67 3e 2c 3e 1f 49 bb 3d 39 33 e3 3c
       -0.1548769 0.1682068 0.09144806 0.027734386
0002a0 8d 4a 1e 3e cc 84 c8 3d c3 5f b1 3d 57 03 97 be
       0.15458126 0.09790954 0.08660843 -0.29494736
0002b0 8f cc 8b be 32 c8 7c be 96 e7 5f be 90 be 85 be
       -0.27304503 -0.24685743 -0.21865687 -0.2612195
0002c0 c8 57 60 be 59 97 10 be 42 3a 5b be 1d d7 81 ba
       -0.21908486 -0.14120235 -0.21408942 -0.0009906028
0002d0 e0 75 49 be ff 34 8b 3d a9 93 5d 3e a2 7e 04 3e
       -0.19673872 0.067972176 0.21638359 0.12938932
0002e0 0d b7 d6 bd a8 42 a3 be ce 01 eb 3d a5 5a 43 3e
       -0.10484133 -0.31886792 0.114749536 0.19077547
0002f0 94 c5 88 be 7e c3 81 be 32 1d fd 3d 5f 6c 2c 3e
       -0.2671324 -0.2534446 0.12359084 0.16838215
000300 e5 8b 98 3d 90 26 4a be 57 ab 33 3e 7d 66 54 39
       0.07448558 -0.19741273 0.1754583 0.00020256075
000310 2a c3 5d be 0b 04 8a be ad cb 10 3e 53 e0 16 be
       -0.2165648 -0.2695621 0.14140196 -0.1473401
000320 88 00 1c be 3c 1a fd 3d 75 4c 98 3d e1 91 1f be
       -0.15234578 0.123585194 0.07436458 -0.15582992
000330 8f 11 a5 be 7d 7f 55 bb 31 da 01 be 38 7d 1f be
       -0.3223996 -0.003257721 -0.1268089 -0.15575111
000340 fa d9 e6 3d 3f 02 20 be 19 23 97 bd 3e 58 fe 3d
       0.112720445 -0.15625857 -0.07379741 0.124191746
000350 60 7b 00 3e bb 3c 66 be 20 2c a9 bd a4 e6 59 3e
       0.12547064 -0.22484104 -0.08260369 0.21279389
000360 cf fc a5 3d 98 fd d2 3c 8d 41 6b be 33 a5 6b 3e
       0.0810486 0.025755689 -0.22974224 0.23012237
000370 37 83 7b 3e 00 84 3e 3e e8 1a 1d 3e 34 27 7b 3d
       0.24561773 0.18605042 0.15342295 0.061316684
000380 89 76 4e 3e 6b b3 65 be c0 2c 44 3d 9c 92 83 bd
       0.20162405 -0.22431724 0.04789424 -0.06424448
000390 2e f1 93 be 7c bf 78 be fc 2c 50 be 3f 4d 37 3d
       -0.28894943 -0.24291795 -0.2032966 0.044751402
0003a0 c3 92 1b 3e 6c e2 bd 3d 96 0c 8b be d7 09 9a 3d
       0.15192704 0.09271702 -0.2715804 0.07521408
0003b0 39 0e 2b 3d 15 08 80 bd f5 b7 cf 3d 25 4b 01 3e
       0.04176161 -0.062515415 0.10142509 0.12626322
0003c0 af a2 46 be 2f bc 02 3e 55 db 78 be 04 65 d7 b9
       -0.19397996 0.12767099 -0.24302419 -0.00041083258
0003d0 af 55 b2 3b 40 5e 92 be 52 c4 e1 3d 65 e7 a8 3b
       0.005442343 -0.28587532 0.11023773 0.0051545375
0003e0 f0 4f 1a 3e 11 38 8e be 62 f7 50 3c 67 5b 5f bd
       0.15069556 -0.2777715 0.012754293 -0.054530527
0003f0 20 06 ae bd 8c 57 11 be a1 2b 57 3d 15 b8 86 3d
       -0.08497262 -0.14193553 0.052531842 0.065780796

fc3.bias f4 [5]
000000 6e 8a 15 bd b2 28 45 3d d1 7e c5 3b 02 b6 ae bb
       -0.03650897 0.048134513 0.0060270806 -0.0053317556
000010 3e ff 28 3d
       0.041259043
